models/best_digit_model.pt (torch, 890647 bytes, 6 tensors)

conv1.weight f4 [16, 3, 5, 5]
0	0xbd85bc60	-0.0653007
1	0xbe233198	-0.15936887
2	0xbd076f78	-0.03306529
3	0xbdeff9c4	-0.11717561
4	0x3c942e0a	0.01808836
5	0xbdcf280a	-0.10115059
6	0xbdfdca7a	-0.12392135
7	0xbdb1cefe	-0.08682059
8	0x3d83f6bd	0.06443546
9	0x3db231c9	0.08700902
10	0xbd36c112	-0.04461772
11	0xbdaaaeb2	-0.08334102
12	0xbc252f45	-0.010082071
13	0x3c9d2f41	0.019187571
14	0xbd420948	-0.047372133
15	0xbd01571c	-0.031577215
16	0x3c89ebb9	0.016836034
17	0xbd3108ca	-0.043221273
18	0x3e0f6e39	0.1400689
19	0x3dbbfc9c	0.09179041
20	0xbca3eb96	-0.020009797
21	0x3cd8c2d1	0.026460083
22	0xba8ac56d	-0.0010587402
23	0x3dd71d3f	0.10503625
24	0x3e24a3a9	0.16078056
25	0x3d79d167	0.060990717
26	0xbd3c523d	-0.045976866
27	0xbe1fbd5a	-0.15599576
28	0x3d276b1e	0.04087364
29	0xbcbee71f	-0.023303567
30	0xbd8f9efb	-0.07012745
31	0xbcc2ee9b	-0.023795417
32	0x3d2f42d2	0.042788334
33	0xbdc6d74a	-0.09709032
34	0x3cbdfb20	0.023191035
35	0xbba70446	-0.005096945
36	0x3c5d2157	0.013496718
37	0xbcfd6dd2	-0.030936155
38	0xbdc888bd	-0.09791706
39	0x3d53910d	0.051652003
40	0xbd649c43	-0.055813085
41	0xbcadaf00	-0.02120161
42	0xbd3a0fc6	-0.0454252
43	0x3db29946	0.08720641
44	0x3d876627	0.06611281
45	0xbdb28edc	-0.087186545
46	0x3c30e0f3	0.01079582
47	0x3df60b81	0.12013913
48	0x3ca9cebf	0.020728467
49	0x3d87268a	0.065991476
50	0xbbfac0d7	-0.007652383
51	0x3b8199ac	0.0039550867
52	0xba936e3e	-0.0011248065
53	0xbde932f4	-0.11386672
54	0x3daad902	0.08342172
55	0xbd5618e5	-0.052269835
56	0xbdbd9226	-0.09256391
57	0xbe0dcf71	-0.13848664
58	0xbd3a5ea5	-0.045500416
59	0xbcc31959	-0.023815798
60	0xbdab3d35	-0.08361284
61	0xbdee8cc8	-0.11647946
62	0xbd85fab1	-0.06541956
63	0x3d7263c2	0.059177168
64	0x3c58a8f3	0.013223874
65	0x3d79b6ea	0.060965456
66	0xbceab442	-0.028650407
67	0xbd8f3c22	-0.06993891
68	0xbd89169f	-0.06693768
69	0x3d074a60	0.033029914
70	0x3de6a704	0.112623245
71	0x3cb14b9e	0.021642502
72	0x3e204c04	0.15653998
73	0x3dc87c94	0.097893864
74	0x3e27a153	0.16370134
75	0xbd812a83	-0.063069366
76	0xbe202786	-0.15640077
77	0x3da582ae	0.08081566
78	0x3df956d1	0.12174762
79	0x3dd4cef9	0.103910394
80	0xbe437ebe	-0.19091317
81	0xbe414cd2	-0.18876961
82	0x3e2056cf	0.15658115
83	0x3e10ef65	0.14153822
84	0x3cd2e8ad	0.025745714
85	0xbd8591e1	-0.06521965
86	0xbe2bae82	-0.16765788
87	0x3de2d3df	0.110755675
88	0x3d853e0a	0.06505974
89	0x3c7e6c22	0.015528711
90	0xbdab202a	-0.08355744
91	0xbde86ca0	-0.113488436
92	0x3de7624e	0.11298047
93	0x3d9225f6	0.07136147
94	0x3c88369d	0.016627604
95	0xbdd61301	-0.104528435
96	0x3dcb8745	0.0993791
97	0x3de14f58	0.11001462
98	0xbd834458	-0.0640952
99	0x3e18702f	0.14886545
100	0xbe08eea8	-0.1337229
101	0x3d1724e5	0.03690042
102	0x3d7c9388	0.061664134
103	0x3c373d52	0.0111840535
104	0x3dee3fe1	0.11633278
105	0xbe047e10	-0.12938714
106	0xbd38c315	-0.04510792
107	0x3cd67ccf	0.02618256
108	0x3e2f65d9	0.17128696
109	0x3d1c113a	0.038102366
110	0xbe2c8ff4	-0.16851789
111	0xbd5dea89	-0.05417875
112	0x3d308caf	0.043102916
113	0x3dbee658	0.09321278
114	0x3dfd17e8	0.123580754
115	0xbe4c1dde	-0.19933268
116	0xbdc3e82c	-0.09565768
117	0x3cb3dafc	0.021955006
118	0x3e07266b	0.13198249
119	0xbc4345e0	-0.011918515
120	0xbe27ebde	-0.1639857
121	0xbccb85f6	-0.024844151
122	0xbc8ffd4c	-0.017576836
123	0x3bc6b7c5	0.0060643875
124	0x3e0f1c5a	0.13975659
125	0xbe1c20d7	-0.15246902
126	0xbe0b7130	-0.13617396
127	0xbdc2cddf	-0.09511923
128	0xbbf09dd9	-0.0073430357
129	0xbc347ebe	-0.011016546
130	0xbd344ad0	-0.04401666
131	0xbc8a3d2b	-0.01687487
132	0x3d68c4cd	0.05682831
133	0x3c08f99e	0.008360295
134	0x3d932366	0.07184486
135	0xbe5d40cb	-0.21606748
136	0xbdfdc516	-0.12391107
137	0x3dcccd6e	0.1000012
138	0x3df69b21	0.12041307
139	0x3d96ae88	0.07357508
140	0xbde76824	-0.1129916
141	0xbc2f8578	-0.010712974
142	0x3dadbb12	0.084829465
143	0x3df26b11	0.118368275
144	0x3d42465c	0.04743038
145	0x3cabd1ab	0.020974
146	0xbc82856d	-0.015932763
147	0x3d3702c2	0.044680364
148	0xbd9f5417	-0.07779711
149	0x3dc50bf5	0.09621421
150	0x3d8d0615	0.06885926
151	0x3d578e1d	0.052625764
152	0xbdd78ad9	-0.1052453
153	0xbdb6611d	-0.08905242
154	0xbd8299c8	-0.06376988
155	0x3dceb484	0.100930244
156	0xbb4a8a1f	-0.003090508
157	0x3c7018db	0.0146543635
158	0xbd18354a	-0.037160195
159	0x3d83faeb	0.06444343
160	0xbd86c745	-0.065809764
161	0xbdff0a4f	-0.12453138
162	0xbca58db7	-0.020209176
163	0xbd15fb83	-0.036616813
164	0x3da11eb9	0.07867188
165	0xbd21a013	-0.0394593
166	0x3d839dc3	0.06426575
167	0x3dff1a9d	0.12456248
168	0x3e069c83	0.13145642
169	0xbd7b80ab	-0.061402004
170	0xbd8ea8b8	-0.06965774
171	0x3da2fcc1	0.07958365
172	0x3da925e5	0.08259181
173	0xbce2470f	-0.027621774
174	0x3c3ac36b	0.01139913
175	0xbd478918	-0.048714727
176	0x3d9b3d33	0.07580032
177	0x3cb3c0af	0.021942465
178	0x3d29a161	0.04141367
179	0xbc927f10	-0.017882854
180	0xbd1f3b4f	-0.03887492
181	0xbdf79743	-0.12089398
182	0x3d0ff1a2	0.03514255
183	0x3cf8970a	0.030345459
184	0xbdaa9abe	-0.08330296
185	0x3da07100	0.07834053
186	0x3c8b25cd	0.016985798
187	0x3d40d259	0.047075603
188	0x3dfc784c	0.12327632
189	0x3d60d01c	0.05488597
190	0x3dc3cbac	0.09560332
191	0xbc07efb3	-0.008296895
192	0xbd1a408c	-0.037659213
193	0x3de64659	0.112438865
194	0xbd7ed5c0	-0.062215567
195	0x3ddf4716	0.109022304
196	0x3d0222ef	0.031771597
197	0x3d85565f	0.065106146
198	0xbd841bca	-0.06450613
199	0x3d14f0e1	0.036362533
200	0x3d6a00c3	0.057129633
201	0x3ca0c64a	0.019625802
202	0xbd4922ba	-0.049105383
203	0xbce749ef	-0.028233496
204	0xbd89cb4c	-0.06728229
205	0x3d25dede	0.040495746
206	0xbc689f06	-0.01419807
207	0xbcd13957	-0.025540037
208	0x3bae028e	0.005310363
209	0xbdbd5ff0	-0.09246814
210	0xbc94d0cd	-0.01816597
211	0xbdcb6473	-0.099312685
212	0xbde36974	-0.11104098
213	0xbbe34d19	-0.006936681
214	0x3df92126	0.12164526
215	0xbdb15fd1	-0.08660854
216	0xbdb21576	-0.086954996
217	0x3d25c1e4	0.04046811
218	0x3d51a811	0.05118567
219	0xbda56bd5	-0.08077208
220	0xbcb645da	-0.022250105
221	0xbd8830b2	-0.06649913
222	0xbd6ca103	-0.05777074
223	0x3e007511	0.12544657
224	0x3d8f2253	0.06988969
225	0xbd31b324	-0.043383732
226	0xbdb11218	-0.08646029
227	0xbe48ea51	-0.19620635
228	0xbe42b8b3	-0.1901577
229	0xbe1cf089	-0.15326132
230	0x3c9e032c	0.019288622
231	0x3cf2bc0e	0.029630687
232	0x3d64a423	0.055820595
233	0x3d9eb713	0.077497624
234	0xbd2468d1	-0.040139023
235	0x3da31983	0.0796385
236	0x3e1145e6	0.1418682
237	0x3e09d779	0.13461103
238	0xba7cc731	-0.0009642719
239	0xbd9748b4	-0.07386914
240	0x3c943825	0.018093178
241	0x3d9f3be7	0.07775097
242	0x3df588a9	0.119889565
243	0x3dddb4ce	0.108255014
244	0x3e2b20ba	0.16711703
245	0xbe3bd9a0	-0.18344736
246	0xbdaf06c2	-0.08546211
247	0xbe0adcaf	-0.13560747
248	0x3d4039ad	0.046930004
249	0xb9ef097d	-0.00045592702
250	0x3d8dc476	0.069222376
251	0xbdf0534f	-0.1173464
252	0xbe120d29	-0.14262833
253	0xbdd32751	-0.103102334
254	0xbdb02b95	-0.086020626
255	0x3d36e9a4	0.04465641

conv1.bias f4 [16]
0	0x3d5f43cb	0.05450801
1	0x3c8080b1	0.015686365
2	0xbcbd1de3	-0.02308554
3	0x3cd3c07e	0.025848623
4	0xbdc47d72	-0.09594239
5	0xbcbf33ab	-0.023340067
6	0x3bc5ae34	0.0060327295
7	0xbd9b9163	-0.0759609
8	0xbd3da155	-0.046296436
9	0xbc82dbf4	-0.015974022
10	0xbd897f31	-0.06713713
11	0xbdc83041	-0.09774829
12	0x3d859ca0	0.065240145
13	0x3c23021a	0.0099492315
14	0x3d7f245b	0.06229053
15	0xbd77fa34	-0.060541347

conv2.weight f4 [32, 16, 3, 3]
0	0xbd809ca8	-0.0627988
1	0xbd83bac6	-0.064321086
2	0xbd4580c7	-0.048218515
3	0xbc780c4f	-0.015139653
4	0xbd87acf5	-0.06624786
5	0xbc093252	-0.008373814
6	0x3ca58bbe	0.020208236
7	0xbd3bd3fa	-0.045856453
8	0xbc862906	-0.016376983
9	0xbd502b74	-0.05082269
10	0x3dae2aa9	0.085042305
11	0x3d5cabdc	0.053874835
12	0xbc0252db	-0.007954325
13	0xbd84b95a	-0.064806655
14	0xbc8aa4f5	-0.01692436
15	0xbd87a76f	-0.06623732
16	0xbd45c673	-0.04828496
17	0x3cd0c786	0.025485765
18	0x3da44f99	0.080229945
19	0x3ccc8622	0.024966303
20	0xbca86e88	-0.020560518
21	0xbc2aa5d2	-0.010415511
22	0x3c650f96	0.013980767
23	0xbd58bc03	-0.052913677
24	0xbd21b1c7	-0.039476182
25	0x3d7b57da	0.06136308
26	0xbd4bf44c	-0.049793527
27	0x3c39679c	0.011316206
28	0x3d18e053	0.037323307
29	0xbdb7c390	-0.089728475
30	0x3ce8186f	0.028331963
31	0x3bee969d	0.007281138
32	0xbcabd11b	-0.020973733
33	0x3cb356cd	0.021891976
34	0xbceb8727	-0.02875097
35	0xbd57d450	-0.05269271
36	0xbd7ff426	-0.062488697
37	0x3cd172f4	0.02556751
38	0x3bce4598	0.0062949173
39	0x3b8aa4f0	0.004231088
40	0xbc73c36d	-0.014878136
41	0xbce67164	-0.02813024
42	0xbd9b15d6	-0.07572524
43	0xbd2a733f	-0.041613813
44	0x3cd979b4	0.02654729
45	0x3d2d09c8	0.042245656
46	0xbd0f3fde	-0.034973018
47	0xbd1b68db	-0.037941795
48	0x3d969e49	0.07354409
49	0xbd7c2d8c	-0.061566874
50	0xbd3e3e07	-0.046445873
51	0x3d5d39b9	0.054010127
52	0xbd1ee876	-0.03879591
53	0x3d98348f	0.074319
54	0xbcb13007	-0.021629347
55	0xbd836e23	-0.06417491
56	0xbc02e411	-0.007988946
57	0xbd60f860	-0.05492437
58	0x3d53ccc4	0.05170895
59	0xbbe202ad	-0.0068972916
60	0x3d672393	0.05643041
61	0xbd1548d3	-0.036446404
62	0x3d5960ba	0.05307076
63	0x3d787690	0.060659945
64	0x3cbe3b90	0.023221761
65	0xbd38b0d3	-0.045090508
66	0xbc0e7b3e	-0.008696375
67	0x3d9a0f24	0.07522419
68	0x3c9b2e00	0.018942833
69	0xbd2371a0	-0.039903283
70	0x3c0c5250	0.008564547
71	0xbd14614d	-0.036225606
72	0x3d8e5d63	0.06951406
73	0x3ce39d6c	0.027785026
74	0x3be9a4b1	0.0071302284
75	0x3d12f43c	0.03587745
76	0x3d30b003	0.043136608
77	0x3c8e0409	0.017335908
78	0xbba7be15	-0.005119095
79	0xbd960f07	-0.07327085
80	0x3bf8d6f9	0.007593986
81	0xbc984b62	-0.018590633
82	0xbd8f2f74	-0.06991473
83	0x3cb1fe26	0.021727633
84	0xbc769968	-0.015051223
85	0xbd82a14f	-0.063784234
86	0xbdad55c3	-0.084636234
87	0xbda758f5	-0.08171264
88	0x3da2f044	0.07955983
89	0x3d173d6e	0.03692382
90	0x3d958556	0.073008224
91	0x3d267375	0.040637452
92	0xbd0bae32	-0.034101672
93	0xbc9c60c9	-0.01908912
94	0x3d3b2795	0.045692045
95	0x3b851150	0.0040609017
96	0xbd988963	-0.074480794
97	0xbcdf1388	-0.027230993
98	0xbd0f2972	-0.034951635
99	0x3d4fedf8	0.050764054
100	0x3cb5f96a	0.022213656
101	0xbda5b1af	-0.08090531
102	0x3d9b7d0a	0.07592209
103	0xbd9eec5c	-0.07759926
104	0xbda94e34	-0.08266869
105	0x3d2c4d31	0.042065803
106	0x3d2f8f78	0.04286143
107	0xbd338dcd	-0.043836404
108	0xbd0f88cf	-0.03504258
109	0xbd9fddf8	-0.07806009
110	0xbcbd59e0	-0.023114145
111	0x3db261af	0.08710038
112	0x3d172e3d	0.03690933
113	0x3c4b62a6	0.012413656
114	0x3db56522	0.0885718
115	0x3d7568a8	0.05991426
116	0xbd9e3296	-0.07724492
117	0xbd2556c5	-0.040365953
118	0xbd4c3e3e	-0.049864046
119	0xbda93dee	-0.08263765
120	0x3dacd1e7	0.08438473
121	0x3c057667	0.008145905
122	0xbc4edf92	-0.0126265455
123	0x3c4df7a7	0.012571252
124	0x3c53fc41	0.01293856
125	0x3da3de40	0.08001375
126	0xbd3a5efc	-0.04550074
127	0xbd5536c3	-0.052054178
128	0xbd85e8f0	-0.0653857
129	0x3b7dc11e	0.0038719843
130	0xbd907c89	-0.07055003
131	0xbd95d154	-0.07315317
132	0x3c3ac9c4	0.011400644
133	0x3dae2b7e	0.08504389
134	0xbda016f2	-0.078168765
135	0x3da3ffeb	0.08007797
136	0x3d9e4fe5	0.077300824
137	0xbd884975	-0.06654636
138	0xbd0b8252	-0.03405983
139	0xbd204efc	-0.039137825
140	0x3d72b4d3	0.05925448
141	0xbd5f9dba	-0.05459378
142	0xbd9ca7a4	-0.076491624
143	0xbd86743b	-0.06565138
144	0x3b4424c4	0.002992914
145	0x39942053	0.00028252843
146	0xbd8adccd	-0.06780396
147	0x3ce5960c	0.02802565
148	0x3ba8997e	0.005145251
149	0x3d3cdf9b	0.046111684
150	0xbc458f3e	-0.012058077
151	0x3d4ea013	0.050445627
152	0xbc26dcb2	-0.010184454
153	0xbd0857b9	-0.033286784
154	0x3b21eb0f	0.0024706756
155	0xbd93e0e9	-0.072206326
156	0xbba02d9f	-0.004888251
157	0xbd7bab69	-0.061442766
158	0xbd998d9a	-0.074977115
159	0xbbce54b4	-0.0062967185
160	0xbd522507	-0.051304843
161	0xbd96bbd0	-0.07360041
162	0x3d2dee81	0.042463783
163	0xbb72ddb6	-0.003705842
164	0xbcca0a93	-0.024663245
165	0x3d8e2421	0.06940485
166	0xbcf9f8fb	-0.030514231
167	0xbc703fe4	-0.01466367
168	0x3d83b11e	0.06430267
169	0x3d33ffb8	0.043945044
170	0xbd9eefa1	-0.07760549
171	0xbda7dab2	-0.0819601
172	0xbdf45ff9	-0.11932368
173	0xbc8baa67	-0.017049028
174	0xbd4abe01	-0.049497608
175	0xbc0cbb2c	-0.008589547
176	0x3ac721c8	0.0015192563
177	0xbdd3fcd0	-0.103509545
178	0xbd824c0b	-0.0636216
179	0x3b71d70d	0.0036901862
180	0x3c9300d0	0.017944723
181	0xbd92e19f	-0.0717194
182	0x3cd2137b	0.025644055
183	0xbd34bb25	-0.044123787
184	0xbc4106d7	-0.011781416
185	0xbd1a7b97	-0.03771552
186	0xbdde1724	-0.108442575
187	0xbd6c2d7c	-0.057660565
188	0xbc99b774	-0.018764235
189	0xbc3306e2	-0.010926934
190	0x3d60dbdb	0.05489717
191	0x3da1e105	0.07904247
192	0xbd55c6eb	-0.052191656
193	0xbc8e895a	-0.017399479
194	0x3d12b6f1	0.035818998
195	0xbdcdb6c4	-0.100446254
196	0xbd9a3cc3	-0.07531121
197	0x3d5b91ff	0.05360603
198	0x3d208153	0.039185833
199	0x3c77d34f	0.0151260635
200	0x3d558003	0.052124035
201	0x3d60600e	0.054779105
202	0x3d47efbd	0.048812617
203	0xbce2d7aa	-0.027690727
204	0xbc61c393	-0.013779539
205	0x3da17523	0.0788367
206	0x3c8dae9f	0.01729518
207	0x3d2da481	0.04239321
208	0xbdc760e0	-0.09735274
209	0x3d50c861	0.050972346
210	0xbd76fc41	-0.06029916
211	0x3c3be1df	0.011467426
212	0xbd8b5f5b	-0.06805297
213	0x3bc0422a	0.0058672624
214	0x3d047e36	0.032346927
215	0xbda4e387	-0.0805121
216	0xbd6620a6	-0.05618348
217	0x3db6f429	0.089332886
218	0x3e02d7c8	0.12777627
219	0x3d89ba4a	0.06724985
220	0xbcc7beeb	-0.024383029
221	0x3da1b9a1	0.07896734
222	0x3b5c8f69	0.0033654815
223	0xbd37e4b2	-0.044895835
224	0xbbe26f94	-0.006910274
225	0xbd892fcc	-0.0669857
226	0x3c59c5a8	0.013291754
227	0xbd2ba9f8	-0.04191014
228	0xbdd9d562	-0.10636403
229	0x3d2f4f2f	0.042800125
230	0xbd64a5ac	-0.05582206
231	0xbdc486ff	-0.09596061
232	0xbdf79e31	-0.120907195
233	0xbdf963f4	-0.12177268
234	0xbbc8faa6	-0.0061333952
235	0x3d4e2afc	0.05033396
236	0xbc960da1	-0.018317046
237	0x3da2ddd7	0.07952469
238	0xbd46e2ed	-0.048556257
239	0xbcd8e8e3	-0.026478237
240	0xbda2c192	-0.07947077
241	0x3d5f3255	0.05449136
242	0xbdb69bf9	-0.08916468
243	0xbdd16022	-0.10223414
244	0x3c94a535	0.018145183
245	0xbb1fd781	-0.0024389925
246	0xbdaf2ce4	-0.08553484
247	0xbce8afd9	-0.028404163
248	0xbd365c3c	-0.044521555
249	0xbde181ba	-0.110110715
250	0xbd7f31dc	-0.06230341
251	0xbc986e7b	-0.018607369
252	0xbe0430d7	-0.12909256
253	0xbd0b40a1	-0.03399718
254	0xbda8cda1	-0.082423456
255	0x3d7c2185	0.061555404

conv2.bias f4 [32]
0	0x3d2062ef	0.03915685
1	0x3c2246c5	0.009904568
2	0x3cee012f	0.029053299
3	0x3da35ebf	0.07977056
4	0x3c2d059c	0.010560419
5	0x3be85c22	0.007091061
6	0x3d486390	0.048923075
7	0xbb624c0e	-0.0034530195
8	0xbd34cd82	-0.0441413
9	0xbccbdbd4	-0.024885096
10	0x3d55f23b	0.052232962
11	0x3bdd83d4	0.0067601
12	0xbc8d95b9	-0.017283307
13	0x3cf1ff16	0.02954058
14	0x3da79d02	0.08184244
15	0x3dbf1187	0.09329515
16	0xbd2b5a18	-0.041833967
17	0x3d5bb262	0.053636916
18	0xbd313146	-0.04325988
19	0x3dbaccd4	0.09121099
20	0xbcdfaadf	-0.027303157
21	0x3d0a8245	0.03381564
22	0xbc6bcb79	-0.014391773
23	0x3d41eb51	0.047343556
24	0xbbad3ca9	-0.0052867723
25	0x3c95ff51	0.01831022
26	0x3d856cba	0.065148786
27	0xbc9bbc52	-0.019010697
28	0xbcbe7187	-0.023247493
29	0xbd8974a5	-0.06711701
30	0x3c8d8847	0.017276896
31	0x3d482bfc	0.04887007

fc1.weight f4 [10, 21632]
0	0xb9ef9a4f	-0.000457006
1	0xbb648bf5	-0.003487346
2	0xbbd22d68	-0.0064141043
3	0x3a935131	0.0011239407
4	0xbba3d3f4	-0.004999632
5	0xbb8151a9	-0.003946502
6	0x3b6fddda	0.003660074
7	0xbaa35dc1	-0.0012463854
8	0x3b58a73d	0.0033058666
9	0x3ba5ac5a	0.0050559463
10	0xbbaf46ff	-0.0053490396
11	0x3ade3ad4	0.0016954788
12	0xbbe08265	-0.0068514817
13	0xbaf2a3f9	-0.0018512002
14	0xbbe269b4	-0.0069095735
15	0x3b1239d9	0.0022312312
16	0x3b90d27f	0.0044196243
17	0x3a97a9e7	0.0011571021
18	0xbb48ff0b	-0.0030669596
19	0x3b8e96f0	0.0043514892
20	0x3b88b183	0.0041715517
21	0x3b35b7a9	0.0027727878
22	0x3b1817aa	0.0023207464
23	0xbb8577ac	-0.004073104
24	0xbb4c3d62	-0.0031164517
25	0xbb770ece	-0.0037698033
26	0xbbd2837a	-0.0064243646
27	0x3b5a90b1	0.0033350403
28	0xbbb61f33	-0.0055579185
29	0x3bbde874	0.005795533
30	0x3bcc43e0	0.0062336773
31	0x39f662d4	0.0004699441
32	0x3b5935b4	0.0033143582
33	0xbb93ee59	-0.0045144972
34	0x3b2e9dae	0.0026644277
35	0xbb8f8526	-0.004379886
36	0xbbb75ac4	-0.005595537
37	0x3b8b5678	0.0042522512
38	0x3b97471f	0.0046166326
39	0xbbccfd30	-0.0062557682
40	0xba39669a	-0.0007072479
41	0x3b27dbb3	0.0025613129
42	0x3bb8e01b	0.00564195
43	0x3b71bc96	0.0036886088
44	0xbb8d994b	-0.0043212525
45	0x3b20ec27	0.002455482
46	0xbbcf6bdb	-0.006329996
47	0x3aa8e38b	0.0012885196
48	0x3b990153	0.0046693473
49	0xbba99012	-0.005174645
50	0xbba0ebb9	-0.004910913
51	0x3a3ebeb1	0.000727634
52	0x3bcde2cd	0.0062831403
53	0xba91d753	-0.0011126794
54	0x3ac0fed6	0.0014724385
55	0xba5a584d	-0.0008329198
56	0xbbdda815	-0.0067644217
57	0xbbfe0342	-0.007751853
58	0xba9c4ee3	-0.0011925366
59	0x3b473982	0.0030399268
60	0xbab415e2	-0.0013739432
61	0x3ba68fbf	0.005083054
62	0xbbe0e6ca	-0.0068634497
63	0xbb02a395	-0.0019933928
64	0xb91b43df	-0.00014807236
65	0xbb89d124	-0.0042058397
66	0x3b03436b	0.0020029198
67	0xba438777	-0.00074588455
68	0xbb408aa1	-0.0029379504
69	0x3a40ff5d	0.0007362271
70	0xbb96dd82	-0.0046040425
71	0xbbc6414d	-0.006050265
72	0x3b8e1576	0.0043360544
73	0x3ba5376c	0.005042007
74	0x392bc692	0.00016381804
75	0xbbb7d131	-0.0056096544
76	0x3b435eda	0.0029811175
77	0x3b0aa941	0.0021158012
78	0xbb92c0eb	-0.004478564
79	0xbbac1635	-0.0052516707
80	0x3bb1681a	0.005414021
81	0xbb15e6fa	-0.0022873268
82	0x3b141446	0.0022595092
83	0xbbcbfc38	-0.006225135
84	0x3b82caf9	0.0039914814
85	0x3bb7872d	0.005600831
86	0xbb948f73	-0.004533702
87	0x3be4bfae	0.006980858
88	0x3bc02ada	0.0058644833
89	0x3bddd719	0.0067700264
90	0xb90fc235	-0.0001370989
91	0xbbaae092	-0.005214759
92	0xbacaa525	-0.0015460594
93	0x3ba8d8ef	0.0051528136
94	0xbbd24209	-0.0064165634
95	0x3bbed8b5	0.0058241733
96	0x3be41df9	0.006961581
97	0xba39bbdf	-0.0007085185
98	0x3b7c925d	0.0038539388
99	0x39c3f385	0.00037374735
100	0x3b9cf334	0.0047897343
101	0xbbcb4910	-0.006203778
102	0x3b8af4b5	0.004240597
103	0x3b3ade34	0.002851379
104	0xb938ab5c	-0.00017611444
105	0x3ac8bd8b	0.0015315277
106	0x3bc6f1e5	0.0060713165
107	0xbbb6ce73	-0.00557881
108	0x3bbfc061	0.005851791
109	0x3b9be186	0.004757109
110	0xbb3bebbf	-0.0028674451
111	0xbbae2f93	-0.00531573
112	0x3b7a5069	0.00381949
113	0x3a46941b	0.000757517
114	0xbbd190cc	-0.006395435
115	0xbb5d476c	-0.0033764495
116	0xbbad1f53	-0.005283275
117	0xbba37a1f	-0.004988923
118	0xbbfc7aac	-0.0077050533
119	0xbb84e262	-0.0040553072
120	0x3b8e9657	0.004351418
121	0x3b89afeb	0.0042018793
122	0x3a0273d1	0.00049763644
123	0x3b8cff54	0.0043028984
124	0xba090eac	-0.00052283215
125	0x3b9a6d6c	0.004712751
126	0xb9cee6eb	-0.0003946343
127	0x3bb61534	0.005556727
128	0xbbdd699f	-0.006756976
129	0xba91ac69	-0.0011114004
130	0xbb287b40	-0.0025708228
131	0xbb429aa4	-0.0029694224
132	0xbb1ce128	-0.0023937915
133	0x3b9443fe	0.004524707
134	0xbad5008a	-0.0016250771
135	0xbbabc976	-0.005242522
136	0xba2f12cc	-0.0006678521
137	0xbb42da4a	-0.0029732161
138	0x3b4a758a	0.0030892813
139	0x3bbb3276	0.0057128025
140	0x3b9b21f3	0.0047342717
141	0x3bd465ad	0.0064818473
142	0xbbac7ee6	-0.005264151
143	0xbba3d5e2	-0.004999862
144	0xbb16deae	-0.002302091
145	0x3b3471e2	0.00275337
146	0x3ba80c18	0.005128395
147	0xbb86343f	-0.0040955837
148	0xbbc5f2bf	-0.0060409005
149	0x3bca9dee	0.0061833775
150	0x3ba6ce75	0.0050905296
151	0xbacd5e6c	-0.0015668399
152	0x3b03479f	0.0020031703
153	0x3b73ffef	0.0037231406
154	0xb8379af8	-4.3774926e-05
155	0x3a1c8fcf	0.0005972357
156	0x3bc2dfb6	0.0059470786
157	0xbbc69c79	-0.0060611335
158	0x3b44defb	0.0030040133
159	0x39c0aa0d	0.0003674779
160	0x3bbbafb0	0.0057277307
161	0x3b4bb914	0.0031085657
162	0xbaf949e9	-0.0019019219
163	0xbb922f72	-0.0044612223
164	0xbbad5e4e	-0.005290783
165	0xb9fcc88d	-0.00048214608
166	0xbab9ccdd	-0.0014175434
167	0xbb8bb09e	-0.004262998
168	0x3b5a2931	0.0033288712
169	0xba1e7ca9	-0.00060457975
170	0x3acd0d7b	0.0015644276
171	0x3b003c40	0.0019567162
172	0x3986675e	0.00025635486
173	0x3bc315e1	0.005953536
174	0xbb7da34f	-0.0038702076
175	0xbb1cefa5	-0.002394655
176	0x3ba77b58	0.0051111393
177	0x3b99e046	0.004695925
178	0x3bba1107	0.0056782993
179	0x3b89a2f9	0.004200336
180	0xbbd23fb6	-0.0064162863
181	0xbae7e5e1	-0.0017692411
182	0x39d72c8d	0.00041041189
183	0xbbce1947	-0.0062896344
184	0xbb0249cd	-0.0019880414
185	0x3aaf2b60	0.0013364367
186	0x3bb5adab	0.0055443845
187	0xbb6b01b9	-0.003585918
188	0xbbb6be3f	-0.0055768783
189	0x3bb8a32b	0.0056346855
190	0xbb5cc0e4	-0.0033684308
191	0xbbcfb699	-0.006338906
192	0xbb820ccc	-0.0039688107
193	0xb921bdfc	-0.00015424931
194	0x3a2d9c54	0.0006622721
195	0x3b7bdd8a	0.0038431608
196	0x3b956449	0.004559074
197	0x3aef9709	0.0018279265
198	0x3a89de24	0.0010518474
199	0x3af62003	0.0018777851
200	0x3bd9c985	0.0066463375
201	0xbaaa2a58	-0.001298259
202	0xbbca2a93	-0.006169626
203	0xbbd447d6	-0.00647829
204	0x3b356b86	0.0027682497
205	0xbad3938d	-0.0016141996
206	0x3b27e194	0.0025616633
207	0x3b9302bc	0.00448641
208	0xbb3f76f6	-0.0029215193
209	0x3a4a14d5	0.00077087927
210	0xb99ba291	-0.00029685025
211	0xbaf0caa1	-0.0018370935
212	0xbb59068d	-0.0033115477
213	0xbb942afe	-0.0045217266
214	0x3b86a89f	0.0041094567
215	0xba53366a	-0.00080571196
216	0xbbd98df8	-0.0066392384
217	0xbb7bd521	-0.0038426595
218	0x3b9a53fc	0.0047097187
219	0xbb35e10a	-0.0027752542
220	0x38d324bd	0.00010068107
221	0xb8d16b2c	-9.985859e-05
222	0x3be3e2ce	0.0069545275
223	0xba91e300	-0.0011130273
224	0x3a142c3f	0.0005652345
225	0xba12672d	-0.00055848324
226	0x3b853c2e	0.004066012
227	0xbadd78b6	-0.0016896937
228	0xbbdaf74e	-0.006682313
229	0x3baccc9f	0.005273416
230	0xba9f5341	-0.0012155549
231	0xbb8c2317	-0.004276644
232	0x3b0c9e9a	0.0021456839
233	0x3acb1f8c	0.0015497073
234	0x398b213a	0.00026536902
235	0x3bc38cb4	0.005967701
236	0xbb6e5a64	-0.0036369795
237	0xba2c3607	-0.000656933
238	0x3ab1190f	0.0013511496
239	0x3b7c9910	0.003854338
240	0x3ba7475c	0.0051049422
241	0xbbc49018	-0.0059986226
242	0xbb8d94ec	-0.0043207314
243	0x3ada53e9	0.0016657087
244	0x3b9669b9	0.00459024
245	0x3b0df703	0.0021662123
246	0x3af7f759	0.001891832
247	0x39902234	0.00027491304
248	0x3b682f4b	0.003542858
249	0x3aabd664	0.0013110158
250	0xbbb707a5	-0.005585628
251	0x3b55ac37	0.0032603869
252	0xbaad2162	-0.0013208801
253	0x3b9bc274	0.004753405
254	0x3a1608dc	0.0005723366
255	0xbbde5040	-0.006784469

fc1.bias f4 [10]
0	0x3a9b826f	0.0011864434
1	0x3b98e546	0.0046660034
2	0xbc090425	-0.008362805
3	0x3c7eafd4	0.01554485
4	0x3bb9f3a8	0.005674798
5	0xbb83a391	-0.0040173014
6	0xbba65d1e	-0.0050770184
7	0x3b17dc80	0.00231722
8	0xbc500da1	-0.012698562
9	0x3c35bc1e	0.011092214
